…
• Sử dụng kỹ thuật Dropout. Bổ sung hai lớp Dropout (tỉ lệ 0.2 và 0.3) sau các 
lớp kết nối đầy đủ. Kỹ thuật này giúp mạng tăng tính tổng quát hóa, chống lại 
hiện tượng quá khớp (overfitting), đảm bảo mô hình hoạt động ổn định trên các 
nét chữ viết tay thực tế. 
• Hàm kích hoạt và Pooling. Sử dụng hàm ReLU để tăng tốc độ hội tụ và Max 
Pooling để giữ lại các đặc trưng nổi bật nhất của chữ số, thay cho Average 
Pooling truyền thống. 
• Phân loại. Mô hình được thiết kế để phân loại 10 lớp trạng thái tương ứng với 
các chữ số từ 0 đến 9 trên bộ dữ liệu MNIST. 
Bảng 3.1. Cấu trúc và số tham số của model Lenet gốc  
Layer (type) Output Shape Parameter 
Input (32, 32, 1) 0 
Conv1 (C1) (28, 28, 6) 156 
AvgPool (S2) (14, 14, 6) 12 
Conv2 (C3) (10, 10, 16) 2416 
AvgPool (S4) (5, 5, 16) 32 
Dense (C5) -120 48120 
Dense (F6) -84 10164 
Output -10 850 
TỔNG CỘNG  61750 
 
Bảng 3.2. Cấu trúc và số tham số của model Lenet tham chiếu 
Layer (type) Output Shape Parameter 
Input (28, 28, 1) 0 
--- PAGE 14 ---
14  
  
Conv1 (C1) (24, 24, 4) 104 
MaxPool (S2) (12, 12, 4) 0 
Conv2 (C3) (8, 8, 8) 808 
MaxPool (S4) (4, 4, 8) 0 
Flatten (128) 0 
Dropout_1 (0.2) (128) 0 
Dense (C5) (32) 4128 
Dropout_2 (0.3) (32) 0 
Dense (F6) (16) 528 
Output 10 170 
TỔNG CỘNG  5738 
 
3.1.2. Triển khai và Huấn luyện Mô hình  
Mô hình được triển khai bằng ngôn ngữ lập trình Python với thư viện TensorFlow/Keras 
– một framework phổ biến và mạnh mẽ cho học sâu. Việc sử dụng Keras Sequential 
API giúp xây dựng mạng một cách ngắn gọn, dễ đọc và dễ dàng điều chỉnh cấu trúc. 
…
